…
OS          : Linux-5.15.0-139-generic-x86_64-with-debian-bullseye-sid
Python      : 3.7.16
CPU cores   : 28
RAM total   : 62.62 GB
CUDA        : available (1 GPU(s))
  GPU 0 name : NVIDIA GeForce RTX 4090


================================================================================
2) STABLE-BASELINES3 SAC MODEL ARCHITECTURE
================================================================================
SAC policy class : SACPolicy

[SAC policy network structure]
SACPolicy(
  (actor): Actor(
    (features_extractor): FlattenExtractor(
      (flatten): Flatten(start_dim=1, end_dim=-1)
    )
    (latent_pi): Sequential(
      (0): Linear(in_features=3, out_features=256, bias=True)
      (1): ReLU()
      (2): Linear(in_features=256, out_features=256, bias=True)
      (3): ReLU()
    )
    (mu): Linear(in_features=256, out_features=1, bias=True)
    (log_std): Linear(in_features=256, out_features=1, bias=True)
  )
  (critic): ContinuousCritic(
    (features_extractor): FlattenExtractor(
      (flatten): Flatten(start_dim=1, end_dim=-1)
    )
    (qf0): Sequential(
      (0): Linear(in_features=4, out_features=256, bias=True)
      (1): ReLU()
      (2): Linear(in_features=256, out_features=256, bias=True)
      (3): ReLU()
      (4): Linear(in_features=256, out_features=1, bias=True)
    )
    (qf1): Sequential(
      (0): Linear(in_features=4, out_features=256, bias=True)
      (1): ReLU()
      (2): Linear(in_features=256, out_features=256, bias=True)
      (3): ReLU()
      (4): Linear(in_features=256, out_features=1, bias=True)
    )
  )
  (critic_target): ContinuousCritic(
    (features_extractor): FlattenExtractor(
      (flatten): Flatten(start_dim=1, end_dim=-1)
    )
    (qf0): Sequential(
      (0): Linear(in_features=4, out_features=256, bias=True)
      (1): ReLU()
      (2): Linear(in_features=256, out_features=256, bias=True)
      (3): ReLU()
      (4): Linear(in_features=256, out_features=1, bias=True)
    )
    (qf1): Sequential(
      (0): Linear(in_features=4, out_features=256, bias=True)
      (1): ReLU()
      (2): Linear(in_features=256, out_features=256, bias=True)
      (3): ReLU()
      (4): Linear(in_features=256, out_features=1, bias=True)
    )
  )
)

[SAC actor network (mu/head)]
Could not access actor mu network: 'SACPolicy' object has no attribute 'mu'

[SAC critic / Q-networks]
--- model.policy.critic ---
ContinuousCritic(
  (features_extractor): FlattenExtractor(
    (flatten): Flatten(start_dim=1, end_dim=-1)
  )
  (qf0): Sequential(
    (0): Linear(in_features=4, out_features=256, bias=True)
    (1): ReLU()
    (2): Linear(in_features=256, out_features=256, bias=True)
    (3): ReLU()
    (4): Linear(in_features=256, out_features=1, bias=True)
  )
  (qf1): Sequential(
    (0): Linear(in_features=4, out_features=256, bias=True)
    (1): ReLU()
    (2): Linear(in_features=256, out_features=256, bias=True)
    (3): ReLU()
    (4): Linear(in_features=256, out_features=1, bias=True)
  )
)
--- model.policy.critic_target ---
ContinuousCritic(
  (features_extractor): FlattenExtractor(
    (flatten): Flatten(start_dim=1, end_dim=-1)
  )
  (qf0): Sequential(
    (0): Linear(in_features=4, out_features=256, bias=True)
    (1): ReLU()
    (2): Linear(in_features=256, out_features=256, bias=True)
    (3): ReLU()
    (4): Linear(in_features=256, out_features=1, bias=True)
  )
  (qf1): Sequential(
    (0): Linear(in_features=4, out_features=256, bias=True)
    (1): ReLU()
    (2): Linear(in_features=256, out_features=256, bias=True)
    (3): ReLU()
    (4): Linear(in_features=256, out_features=1, bias=True)
  )
)


================================================================================
3) D3RLPY AWAC / CQL MODEL ARCHITECTURE (TEMPLATE)
================================================================================
d3rlpy version: 0.90

[AWAC default model info]
d3rlpy.algos.awac.AWAC(action_scaler=None, actor_encoder_factory=d3rlpy.models.encoders
…
